data/processed/best_model.pt (torch, 5819 bytes, 4 tensors)

fc1.weight f4 [64, 10]
0	0xbe0d68ec	-0.13809556
1	0x3e22a3d3	0.15882806
2	0x3e2cdd81	0.16881372
3	0xbe99c319	-0.3003166
4	0x3e5f3317	0.21796833
5	0x3e86772a	0.2626279
6	0xbe848090	-0.25879335
7	0x3e1aaa10	0.15103936
8	0x3e1bfe07	0.15233622
9	0xbe82392d	-0.25434247
10	0x3ea8d9fd	0.32978812
11	0xbe47cd1a	-0.19511834
12	0x3ea55310	0.32289934
13	0x3e30c080	0.17260933
14	0xbe250468	-0.16114962
15	0xbd0b3fda	-0.03399644
16	0xbe065b15	-0.13120683
17	0x3dcc6130	0.099794745
18	0xbe51c02a	-0.20483461
19	0xbe2ccd70	-0.16875243
20	0x3e836030	0.25659323
21	0x3e8d1cad	0.2756094
22	0xbe51d239	-0.2049035
23	0x3e4cc8e7	0.19998513
24	0x3d69f203	0.057115566
25	0x3d427a23	0.04747976
26	0xbe8059dc	-0.25068557
27	0xbd0ea92f	-0.034829315
28	0xbe320da9	-0.17388023
29	0xbe82c417	-0.2554023
30	0xbeaef13c	-0.34168422
31	0xbdb09ff8	-0.086242616
32	0x3d912dde	0.070888266
33	0x3d4c2ba5	0.04984631
34	0xbe090c7d	-0.1338367
35	0xbe7cdbf2	-0.24693277
36	0x3b5d38c7	0.0033755766
37	0x3e9c309b	0.30505833
38	0x3d36a971	0.044595186
39	0x3d493606	0.049123786
40	0xbe5adad5	-0.2137254
41	0xbe04e4a1	-0.1297784
42	0x3e355dab	0.17711513
43	0xbe53adf3	-0.20671825
44	0xbd907204	-0.07052997
45	0x3db7efd8	0.089812934
46	0x3eb4de1c	0.35325706
47	0x3ae5876d	0.0017511674
48	0x3dd6bcb1	0.10485209
49	0x3e6681ed	0.225105
50	0x3e95c901	0.29254916
51	0x3d8d8642	0.06910373
52	0x3e7ef87c	0.24899477
53	0x3e0735bd	0.13204093
54	0xbe269105	-0.16266258
55	0xbe85ff6d	-0.26171437
56	0x39ccf9bd	0.00039095982
57	0x3de4bcb0	0.11168802
58	0x3ea210b9	0.31653383
59	0xbda011c7	-0.07815891
60	0x3e56d0e7	0.20978127
61	0xbe107f7a	-0.14111128
62	0x3e2f2626	0.17104396
63	0x3e4af4a0	0.1981988
64	0xbdb483f4	-0.088142306
65	0x3d95f878	0.07322782
66	0x3e9d75c0	0.307539
67	0xbe20e987	-0.15714084
68	0x3d731b54	0.059352234
69	0xbdf91411	-0.121620305
70	0x3dbfef3e	0.09371804
71	0x3e10082b	0.14065616
72	0x3e8291fa	0.25501996
73	0x3dd64bcc	0.10463676
74	0xbda61208	-0.08108908
75	0x3e08a1c8	0.13342965
76	0x3c7f0afe	0.015566586
77	0xbe1643de	-0.14674327
78	0x3e586a11	0.21134211
79	0xbe603c59	-0.21898021
80	0x3e89b2e4	0.26894295
81	0xbe43561b	-0.19075815
82	0xbde9a825	-0.11409024
83	0x3e52762a	0.20552889
84	0xbd9a6a55	-0.075398125
85	0x3e84b2db	0.25917706
86	0x3dbbd1c5	0.0917087
87	0xbe8c3211	-0.27381948
88	0x3e038c3f	0.12846468
89	0x3d439d5f	0.047757503
90	0xbe8b73f3	-0.272369
91	0xbdaf032c	-0.08545527
92	0xba97f540	-0.0011593476
93	0x3e85b0ee	0.2611155
94	0xbe843fa1	-0.25829795
95	0xbc9a9abb	-0.01887261
96	0x3dabe469	0.08393175
97	0x3de94bf1	0.11391438
98	0xbe54b076	-0.2077044
99	0x3c2013e7	0.00977037
100	0xbe3378bd	-0.17526527
101	0x3e1b8159	0.15186061
102	0x3e966972	0.29377323
103	0x3e40a9c9	0.18814768
104	0xbdec9b86	-0.11553101
105	0xbe8753fb	-0.2643126
106	0xbda96757	-0.08271664
107	0xbea122a2	-0.31471735
108	0x3e671a77	0.2256869
109	0x3e671f3c	0.22570509
110	0x3ea6ccdf	0.3257818
111	0x3ea2e53e	0.31815523
112	0x3da2a206	0.0794106
113	0x3d888d27	0.06667548
114	0x3c89cce9	0.016821342
115	0xbe89ed8f	-0.26939055
116	0xbe6115e2	-0.21981004
117	0xbe8a2061	-0.26977828
118	0x3e07d463	0.13264613
119	0xbe28e0cb	-0.16492002
120	0xbe0c52a4	-0.137034
121	0xbe8af6c4	-0.27141392
122	0x3b806a13	0.003918895
123	0xbe76e097	-0.24109112
124	0x3e8eebfb	0.27914414
125	0xbd00afbe	-0.0314176
126	0x3e64ba43	0.22336678
127	0xbd31e62b	-0.043432396
128	0xbaf132b6	-0.0018401954
129	0x3da37ce3	0.079828046
130	0xbdb1a864	-0.08674696
131	0xbe856fc1	-0.26061824
132	0x3b9697e0	0.0045957416
133	0x3d0e68ed	0.034768034
134	0x3e338dcd	0.17534561
135	0x3d12bf98	0.03582725
136	0x3db6d88a	0.0892802
137	0xbbcc8ef5	-0.0062426277
138	0xbdc30a44	-0.095234424
139	0xbc4711ca	-0.012150237
140	0xbd9f309c	-0.077729434
141	0xbcf2b2ee	-0.029626336
142	0xbe5048d8	-0.20340288
143	0x3ce99da1	0.028517546
144	0xbdfb8198	-0.122805774
145	0xbea107b8	-0.314512
146	0xbe68b71e	-0.22726104
147	0xbe944653	-0.28959903
148	0xbe3b9f69	-0.18322529
149	0x3c928c13	0.017889058
150	0x3cc97d16	0.024595778
151	0x3e4f5759	0.20248164
152	0xbd9f4d7f	-0.07778453
153	0x3d978726	0.073988244
154	0x3e071dd8	0.13194978
155	0xbe8dae53	-0.2767206
156	0x3e8f388d	0.27972832
157	0x3dd46fae	0.10372864
158	0x3d0f888c	0.03504233
159	0xbc5078b0	-0.012724087
160	0xbe12259b	-0.14272158
161	0xbda8b662	-0.08237912
162	0xbe8c7b40	-0.27437782
163	0x3c8adc06	0.016950618
164	0xbe0acbc6	-0.13554296
165	0x3e22aab4	0.1588543
166	0x3d2d7f88	0.04235795
167	0xbe89d019	-0.26916578
168	0xbe7429e8	-0.23844111
169	0x3e858b7c	0.2608298
170	0x3d75f884	0.060051456
171	0xbe159fd1	-0.14611746
172	0xbe51b9c1	-0.20481016
173	0x3c2c8d99	0.010531806
174	0xbe324723	-0.17409949
175	0xbea3e0dc	-0.32007492
176	0xbd56dfb6	-0.05245944
177	0x3d50bad4	0.050959423
178	0x3e746801	0.238678
179	0xbe2b0045	-0.16699322
180	0x3e6b04f8	0.22951114
181	0x3e591d62	0.21202615
182	0xbc00ae24	-0.007854018
183	0x3e8b6646	0.27226466
184	0xbdd35426	-0.103187844
185	0x3e85d8e9	0.26142052
186	0x3c6381ef	0.013885959
187	0x3d5fa6ca	0.05460242
188	0xbd88645f	-0.06659769
189	0x3e8aa9ee	0.2708277
190	0x3e1f5786	0.15560731
191	0xbe970826	-0.29498404
192	0xbe79cde4	-0.24394947
193	0x3e4f6e69	0.20256962
194	0xbe09b894	-0.13449317
195	0xbe89ab1d	-0.26888362
196	0x3ea9164d	0.33024827
197	0x3d3473d4	0.044055775
198	0xbdf26319	-0.11835308
199	0x3e0c6db9	0.13713731
200	0x3dbd96d6	0.09257285
201	0xbe2097ba	-0.15682879
202	0xbdf91bf3	-0.12163534
203	0x3df0e3be	0.117621884
204	0xbe90cd33	-0.28281555
205	0xbdfa6097	-0.12225454
206	0x3d2c05ae	0.041997604
207	0xbe5abd51	-0.21361281
208	0x3e0055ac	0.12532681
209	0xbe1de5ab	-0.15419643
210	0xbdabd5d3	-0.08390393
211	0x3e07950a	0.13240448
212	0xbe75455a	-0.23952237
213	0x3e0565c5	0.13027103
214	0x3e9d973a	0.3077944
215	0x3df2904a	0.11843927
216	0x3c8017c4	0.015636332
217	0x3e26d8bb	0.16293614
218	0xbe8ea55b	-0.2786053
219	0xbe44c6ab	-0.19216411
220	0xbe9ca25f	-0.3059263
221	0xbdc75a1d	-0.097339846
222	0xbe2b9bd3	-0.16758661
223	0xbbe4793c	-0.00697246
224	0x3d4b01ad	0.049562145
225	0xbd6bbcbc	-0.057553038
226	0x3e899444	0.2687093
227	0xbd034230	-0.032045543
228	0xbde2db45	-0.110769786
229	0x3e21952e	0.15779564
230	0xbd83b775	-0.06431476
231	0x3e375f76	0.17907509
232	0x3e5abbd6	0.21360716
233	0x3e6939ab	0.22775905
234	0xbd83f9fb	-0.06444164
235	0xbdd89e36	-0.10577051
236	0x3bfb4748	0.0076684095
237	0xbe8df68a	-0.27727157
238	0xbe568c71	-0.20952012
239	0x3d1e22bf	0.038607355
240	0x3d5adf44	0.05343558
241	0x3d8abb42	0.06773998
242	0x3e1662b1	0.14686085
243	0x3ea3d021	0.31994727
244	0xbe803e69	-0.25047615
245	0xbd465d36	-0.048428737
246	0x3c8f435b	0.017488172
247	0x3e1d5c18	0.15367162
248	0x3e02d420	0.12776232
249	0xbd74473c	-0.059638247
250	0x3cb928c1	0.02260244
251	0xbe216dbf	-0.15764521
252	0x3d8a32f8	0.06748003
253	0x3e4ba4c0	0.19887066
254	0x3e68b1fc	0.22724146
255	0xbe6cd08f	-0.23126434

fc1.bias f4 [64]
0	0x3e1603cc	0.14649886
1	0xbe1fb325	-0.15595682
2	0x3e2512a8	0.16120398
3	0xbd5b8359	-0.05359206
4	0xbdc2d427	-0.09513121
5	0x3e8fb929	0.28070953
6	0xbe1bca04	-0.15213782
7	0xbe3756e6	-0.17904243
8	0xbe1e56ad	-0.15462752
9	0x3e427486	0.18989763
10	0xbd4fad15	-0.050702173
11	0xbe362522	-0.17787603
12	0x3ad27a1f	0.0016058123
13	0xbcbf659d	-0.023363883
14	0xbe51845f	-0.20460652
15	0xbe72d806	-0.23715219
16	0x3e8d4ba2	0.27596766
17	0x3ea4072c	0.32036722
18	0x3d17cd63	0.037061106
19	0x3d949a0a	0.07255943
20	0x3c10e6fe	0.008844135
21	0x3d015e5f	0.03158414
22	0xbe86927c	-0.26283634
23	0x3e06422d	0.13111182
24	0x3d6712aa	0.056414284
25	0x3e6a93e0	0.22907972
26	0x3e959065	0.29211727
27	0xbce4190b	-0.027843973
28	0xbe985654	-0.29753363
29	0xbe2ff6b4	-0.17183954
30	0xbe85ca0d	-0.26130715
31	0xba86729d	-0.0010257546
32	0x3dd35665	0.10319213
33	0x3e87e5f4	0.26542628
34	0x3e4a0635	0.1972893
35	0xbe19981e	-0.14999434
36	0x3c610a6f	0.013735398
37	0x3c12e82a	0.008966485
38	0x3e5f34de	0.21797511
39	0x3d9dadcd	0.076991655
40	0x3e3a6f95	0.18206628
41	0x3cc8ea60	0.024525821
42	0xbe4e54c9	-0.2014953
43	0xbe96f33e	-0.29482454
44	0xbe1134ec	-0.14180344
45	0xbdf9c7f0	-0.12196338
46	0x3a13a46a	0.00056321046
47	0x3e7016d5	0.2344621
48	0x3dfca8ff	0.12336921
49	0xbdc27790	-0.09495461
50	0xbe9a51ed	-0.3014063
51	0x3ca47fed	0.020080531
52	0xbe0ba146	-0.1363574
53	0x3e12bbe1	0.14329483
54	0xbe9f26f0	-0.31084394
55	0xbdd003c9	-0.10156972
56	0xbe337b43	-0.1752749
57	0x3e221839	0.15829553
58	0x3e8ae37e	0.27126688
59	0x3d11b2a4	0.035570756
60	0xbdceeef8	-0.101041734
61	0xbb002163	-0.001955115
62	0xbdba1975	-0.09086887
63	0x3db3d2a8	0.08780414

fc2.weight f4 [2, 64]
0	0x3bb3cd80	0.005487144
1	0x3db88ef8	0.09011644
2	0xbc6b1c84	-0.01435006
3	0xbde29b44	-0.11064771
4	0x3df6757e	0.120341286
5	0x3e005471	0.12532212
6	0x3dd33bde	0.10314153
7	0x3de97dc1	0.11400939
8	0xbe12d885	-0.14340408
9	0x3bb93274	0.0056517664
10	0x3c735721	0.014852316
11	0xbd68b0ea	-0.056809343
12	0x3d2681b4	0.04065104
13	0xbd938011	-0.07202161
14	0xbbcc3920	-0.006232396
15	0x3b9a0eec	0.004701486
16	0xbdbc30bc	-0.09188983
17	0x3e052b0d	0.13004704
18	0x3d83d3a9	0.06436855
19	0x3d9d611a	0.07684536
20	0xbe0113fc	-0.1260528
21	0xbd51afda	-0.051193096
22	0x3d367b11	0.04455096
23	0x3c3b7a65	0.011442755
24	0x3d7655b0	0.06014031
25	0xbd9e9b82	-0.077445045
26	0x3d3d8017	0.046264734
27	0xbd94b473	-0.072609805
28	0xbdbacdc3	-0.09121277
29	0x3b46600d	0.0030269653
30	0xbd6bb8ce	-0.05754929
31	0xbd249f97	-0.04019126
32	0x3c36198b	0.011114488
33	0x3d88ae4f	0.06673872
34	0xbdcf6eed	-0.10128579
35	0x3d5224b2	0.051304527
36	0x3c3ccb83	0.01152313
37	0x3db62979	0.08894629
38	0x3c7b5a7a	0.0153413955
39	0xbb51aac0	-0.0031992644
40	0x3d4ac913	0.049508166
41	0x3c444c8a	0.011981139
42	0xbc11b7af	-0.008893891
43	0xbd447df8	-0.047971696
44	0xbd33e2fd	-0.043917645
45	0xbd502465	-0.05081596
46	0xbd3a3f68	-0.045470625
47	0x3debfe50	0.11523116
48	0x3dda16bf	0.1064887
49	0xbda74178	-0.08166784
50	0x3dcfb4ba	0.10141893
51	0x3dc1ff72	0.094725505
52	0x3dc8c5f1	0.09803379
53	0xbcddea23	-0.027089184
54	0x3db7028a	0.08936031
55	0x3dbbde76	0.091732904
56	0xbb998677	-0.004685219
57	0xbdf5fe07	-0.120113425
58	0xbd06b2eb	-0.032885473
59	0x3d981ef7	0.07427781
60	0x3d3e0785	0.04639389
61	0x3d2f2a38	0.042764872
62	0x3d828c21	0.06374384
63	0xbdcd89ac	-0.100360245
64	0xbdec627d	-0.11542223
65	0x3b81ceea	0.0039614337
66	0xbbd67a71	-0.006545358
67	0x3d5efc85	0.05444004
68	0x3d4c0426	0.049808644
69	0x3cfa4178	0.030548796
70	0x3cd7f7c2	0.026363257
71	0xbd344bdf	-0.04401767
72	0x3ddf4761	0.10902286
73	0x3d2b8f24	0.041884556
74	0x3d8db68e	0.06919585
75	0xbab233bd	-0.0013595741
76	0xbdf32863	-0.118729375
77	0xbdc77b4b	-0.09740313
78	0xbd87ed60	-0.066370726
79	0x3c96a248	0.018387929
80	0xbb8d5ed2	-0.004314282
81	0xbb17a6c1	-0.0023140165
82	0x3de60b9a	0.112326816
83	0x3d37988d	0.044823218
84	0x3e044057	0.12915169
85	0x3d05a99b	0.03263245
86	0xbd972080	-0.07379246
87	0x3bdf72e5	0.0068191164
88	0x3db95741	0.090498455
89	0x3a5613f5	0.0008166426
90	0x3d8d718e	0.069064245
91	0x3dd6d9eb	0.10490783
92	0x3b121979	0.0022293015
93	0xbd1864a5	-0.037205357
94	0xbdc0a67b	-0.09406754
95	0xbdcc9204	-0.09988788
96	0xbd055649	-0.03255299
97	0xbd93488f	-0.07191574
98	0x3d02c4fc	0.03192614
99	0xbd4b7126	-0.049668454
100	0xbdc6c84b	-0.097061716
101	0x3d454fc0	0.04817176
102	0x3dcc8f86	0.099883124
103	0x3c910e80	0.01770711
104	0xbd8ea9b7	-0.06965964
105	0x3d8d5d7b	0.069025956
106	0xbbd44ced	-0.006478897
107	0xbd786cc4	-0.060650602
108	0xbcad417b	-0.021149388
109	0x3d98ef52	0.07467522
110	0xbc2aaed1	-0.010417656
111	0x3dca9d82	0.098933235
112	0xbcfa8b7d	-0.030584091
113	0x3dc60c4e	0.09670316
114	0xbc9af9a2	-0.018917862
115	0xbe0d490f	-0.13797401
116	0x3c3ad1f4	0.011402596
117	0xbe25551d	-0.1614575
118	0xbdeb89d6	-0.115008995
119	0xbc0eb565	-0.00871024
120	0x3d96f0f8	0.0737018
121	0x3dd48832	0.1037754
122	0x3d463a9c	0.048395738
123	0xbd3cee5e	-0.046125762
124	0x3c0c5afa	0.008566612
125	0x3dd040c9	0.10168607
126	0x3c8715bc	0.016489856
127	0xbddc6212	-0.10760893

fc2.bias f4 [2]
0	0x3df112e7	0.117711835
1	0x3dd9532a	0.106115654
