data/processed/saved_model.pt (torch, 73157 bytes, 6 tensors)

fc1.weight f4 [128, 3]
00000000: 5d26 0cbf 7d30 fcbe 05d3 97be 3d42 07bf
00000010: 64f7 bc3e 70d3 9bbe 9895 afbe aca2 133f
00000020: ee25 813e b057 123d 404a 023d 70c5 133e
00000030: f262 c03e d41a ca3e a28b 23be 002f 103b
00000040: b8b2 fb3e 6492 d53e 06dd f8be 9a8a f5be
00000050: e827 15be 1453 863e ff7c f1be 1853 f63e
00000060: d4c5 edbd 677d a3be 305f 66bd 00cc dc3e
00000070: e879 033f 5d61 eebe f03c 563d e1e7 0ebf
00000080: 546e 933e fe41 c03e 6404 b7be d056 fe3e
00000090: aad8 b93e 8c09 1abe 38db 263e 1054 133d
000000a0: 60db 6f3d 1adb 883e 3407 193e 8847 df3e
000000b0: a054 be3e aa74 083f 3096 65bd 3409 48be
000000c0: f844 bebe 0cd3 40be 8cba b83e 4497 f53e
000000d0: d05f 5d3d a871 cf3d dc3c b33e 8ed8 bfbe
000000e0: 0c1b b5be 42d7 b8be 0cd1 833e 6822 6b3e
000000f0: 002d 5a3b c0c4 623c 29ac 8bbe b96a 04bf
00000100: 14d7 86be bef2 0c3f 7709 f3be 5c1a da3e
00000110: 4e29 863e e801 e63e d4a1 e53e 4c1d fb3e
00000120: e97e cbbe 6c6b 943e bcbc f63e 6eef f3be
00000130: 8354 c1be 6858 613e 3c92 cbbd 8eb2 e4be
00000140: 4266 113f 8004 563d 8043 0e3d 10b0 dfbe
00000150: ac8f 1a3e 65dd fcbe 9385 98be 107e 4e3d
00000160: 7878 e33e 46e2 b9be d756 99be 4ce6 abbe
00000170: 984f af3d a461 883e 1c43 e1bd 9b01 a4be
00000180: ace5 773e 8085 72bd 32bf 01bf f004 053f
00000190: a022 903d 8078 cb3b 86cb d7be 0ed4 36be
000001a0: 62b2 033f 60b5 0ebd 123a a9be bcef 383e
000001b0: 2634 8f3e 18f7 8e3e 2e4a 1fbe 9c00 7f3e
000001c0: 10fe eb3d c095 dfbc 0035 c8be aaeb 8f3e
000001d0: 2e06 febe 19a9 ebbe fc7d 953e 6006 543e
000001e0: d8de 92be a4c0 23be 26e3 fabe 60d5 6fbe
000001f0: 065d 95be 90a6 9b3d 7a36 21be 74b1 d83e
00000200: 04e6 463e e825 113e ac98 a83e 1ab7 093f
00000210: 04ef d3bd 7ee7 12be 4098 39bd 1eb3 b23e
00000220: a765 81be e05b f43e 865d fdbe 64b9 fe3e
00000230: 4962 89be a08f 3d3e 3aa1 003f b6b2 e7be
00000240: 401f ac3d 402a 603e 34fc 54be 40b8 c13e
00000250: 1874 13bf bc66 653e 486b 9bbe 0090 4db9
00000260: 95e4 84be baa2 09be 20d1 d93e 6a3e dfbe
00000270: 3087 64bd a46e 113f b826 f4bd 9ce5 b33e
00000280: cb8d 09bf c4c8 c3be 206f 5dbd de2e 25be
00000290: 30ba 06bd 705b 003e c03e c13c c82d a9bd
000002a0: 0074 d03d d8b4 de3d 40ca 5dbc 258d febe
000002b0: 7c14 d93e f050 8b3e bc3c 4bbe 70ce f33e
000002c0: 7495 6f3e 40a8 613d aea1 c73e e247 dabe
000002d0: 34e1 bebe f8db ef3d 50fd 9cbd 94e2 093e
000002e0: 00c2 893a 2c2e 01be 70df 84be 287d 88bd
000002f0: 208d 063e 94dc 00bf a6ab be3e 3a2c c03e
00000300: 04dd a5be 9c84 f1be d9ae febe a6d5 73be
00000310: 303c 713e 88ec ebbe 2627 00bf 68a7 9f3d
00000320: 9e6c 81be 1202 dabe 4c35 783e 3cd8 6a3e
00000330: a044 a4bc 0629 0c3f edfb 03bf 2629 0abf
00000340: fc52 d9bd 1eb5 afbe f04d 213e 6cb2 9fbd
00000350: c4b9 073f bbe8 e8be 60ef fa3d 2687 eabe
00000360: bebc c0be 985e f93d 8eb2 23be 5cab f63e
00000370: d8ec a63e 3448 c4be a204 15be 806b 0f3d
00000380: 7ca6 0a3f 80be 31bd f4e9 06bf 44b6 833e
00000390: 54d8 a9be ec46 ff3e 5c8d f3bd c4ed bdbe
000003a0: e02c 0b3d 135f fdbe 70a7 e53d b23d 5cbe
000003b0: 6674 b3be 74ff 0dbf fac5 933e 4065 f23d
000003c0: dc09 fcbe 3c41 c5be d02b 933d 2207 a43e
000003d0: 406c ac3e 9ea4 af3e 4cf8 ea3e f0c7 e93d
000003e0: 1056 e43e ec0b 2ebe ded4 f5be 9c5c 60be
000003f0: b736 b3be 0028 643e 0002 dd3a 5263 8b3e
-0.5474604 -0.49255744 -0.29653183 -0.52835447 0.36907494 -0.30434752 -0.34293818 0.5767009
0.2522425 0.035728157 0.03180909 0.14430785 0.3757549 0.39473593 -0.15971234 0.002200067
0.4915979 0.4171325 -0.48606128 -0.47957307 -0.14566004 0.2623526 -0.47165677 0.4811027
-0.11609998 -0.31931612 -0.05624312 0.4312439 0.5135789 -0.46558657 0.05230421 -0.5582257
0.2879511 0.37550348 -0.35745537 0.49675608 0.36298114 -0.15042704 0.16294563 0.03596884
0.05855882 0.2672966 0.14944154 0.43609262 0.3717394 0.53303015 -0.056051433 -0.1953476
-0.37161994 -0.18830508 0.36079824 0.4796697 0.054046452 0.101291 0.3500737 -0.37469906
-0.35372198 -0.3610173 0.25745428 0.22962344 0.0033290982 0.013840854 -0.27279785 -0.51725346
-0.26335967 0.55057895 -0.4746816 0.42598236 0.26203388 0.4492333 0.44850028 0.4904579
-0.39745262 0.28988206 0.48190868 -0.47643608 -0.3775979 0.2200638 -0.09940001 -0.44667476
0.5679666 0.052250385 0.03473234 -0.43689013 0.15093869 -0.4938766 -0.2978941 0.05041319
0.44427848 -0.36305445 -0.29949066 -0.3357414 0.08560103 0.26636994 -0.10999128 -0.32032475
0.24208707 -0.059209347 -0.50682366 0.5196066 0.07037854 0.006209433 -0.42147464 -0.1785433
0.51444066 -0.03484094 -0.33052117 0.18060201 0.27969474 0.27922893 -0.15555641 0.24902576
0.11523068 -0.027293086 -0.39102936 0.28109485 -0.4961409 -0.4602745 0.2919768 0.20705557
-0.2868564 -0.15991455 -0.49001426 -0.2342124 -0.29172534 0.07600129 -0.15743437 0.42322886
0.19423681 0.14174616 0.3292898 0.53795016 -0.10348323 -0.1434612 -0.045311213 0.3490228
-0.25272867 0.47726345 -0.49485415 0.49750817 -0.26832798 0.1851182 0.5024601 -0.45253533
0.08404398 0.21891117 -0.20799333 0.37835884 -0.5759902 0.22402471 -0.30355287 -0.00019603968
-0.25955644 -0.13440982 0.42542362 -0.43602306 -0.055792987 0.5680945 -0.119214475 0.35136116
-0.53731984 -0.3823911 -0.054061055 -0.1613116 -0.032892406 0.1253488 0.023589492 -0.08260685
0.10178375 0.10874337 -0.01353699 -0.4971706 0.4239844 0.27210188 -0.19847387 0.47618437
0.23396856 0.055092096 0.3899054 -0.42632967 -0.3728119 0.117118776 -0.07665503 0.13465339
0.0010510087 -0.1261527 -0.2595172 -0.06664497 0.13139772 -0.50336576 0.37240332 0.37533742
-0.32395184 -0.47171485 -0.49742773 -0.23811969 0.23558116 -0.46078897 -0.50059736 0.07795602
-0.2527818 -0.42579705 0.24239081 0.2293405 -0.020052254 0.54750097 -0.51556283 -0.5396904
-0.10611531 -0.3431787 0.15752387 -0.07797703 0.5301783 -0.4549006 0.122526884 -0.45806235
-0.37644 0.121762455 -0.15986082 0.48177612 0.32602572 -0.38336337 -0.14552549 0.03501463
0.54160285 -0.043394566 -0.52700734 0.25724995 -0.33172858 0.49858797 -0.118921965 -0.37095463
0.033978343 -0.49486598 0.11213577 -0.2150791 -0.35049742 -0.55467916 0.28861982 0.11835718
-0.49226272 -0.38526332 0.07186091 0.32036692 0.33676338 0.3430528 0.4589256 0.11415088
0.4459691 -0.16996735 -0.48013967 -0.21910328 -0.35002682 0.22280884 0.0016861558 0.27224213

fc1.bias f4 [128]
00000000: 3e75 ea3e af08 0c3f 81e7 c23e 0aff 463e
00000010: 05d2 ee3e 3166 f73e b51c 1f3e 411b a83e
00000020: 1e64 783e d225 0dbf 4adb b33e e9ea 9f3e
00000030: 0927 103f a75e a6be 3a83 3abe f3c0 0fbf
00000040: 7096 05bf 22b3 e33d 4917 ffbe d004 413e
00000050: 0e4b f2be c49b 10bf a40e 57be 540d 163f
00000060: f0a7 8c3e b803 b5be d47a 453e c055 70bd
00000070: 1b6a 023e 602a 07bd 0e78 033f ccdc babe
00000080: 0a74 003e dffa 1f3e 00fd 2fbd 26c6 56be
00000090: ecbe a9bd 9680 213f c823 213e 2057 1ebd
000000a0: afed b8be f3bc dd3e d229 4abe 126c 193f
000000b0: 7470 b4bd 10bb f33e 96da 243e d47e ea3e
000000c0: 9bf2 023e a0c4 ddbc 944a cf3e 414a ef3e
000000d0: ea68 f0be f3e0 223f 108e a23e a623 86be
000000e0: 5571 0d3f 8066 f3bb 1c28 b13e 0e57 4bbe
000000f0: ac3c 0dbe 70d2 37bd 6faf 0dbf 2770 f73d
00000100: 7e62 f53d 9422 cebd 76c8 0dbf 34ba c5bd
00000110: 88fe d13e c4f0 e63e cfb4 0ebf 9722 3e3e
00000120: f595 d93e d2ec 2dbe c940 1d3f 1824 c7be
00000130: 7044 86be c48a 703e 78be 1b3f 5b54 8cbe
00000140: 25c9 943e db84 cebe 60bc 2cbe f46b bbbe
00000150: 52d7 b33e 6860 c23e 3ece 063f 3fd3 493e
00000160: 3ec4 14be 106e babe cd2c 06bf aab0 863e
00000170: c871 1fbe 83b5 113f ac88 4fbe 74cb e9bd
00000180: a94f c3be ab93 003f c615 abbe 1011 10bf
00000190: c870 10bf 6103 1e3f 7030 193f c5b4 203f
000001a0: 306a e1be 9d12 cb3e fc78 57be d4c4 b2bd
000001b0: e1fd babe 894f e93e 786d 1c3f 805f 7cbc
000001c0: 9392 053e 8ea7 44be 4385 3f3e ffdc 903e
000001d0: c4c2 02be c8cc bfbd 5042 093f 3eee 933e
000001e0: e201 013e b4a8 d9be cfe1 e43e 10b6 d9be
000001f0: 0cdc 23be 48e6 25be d4b9 d1be de03 12bf
0.45792574 0.5470075 0.38067248 0.19433227 0.46644607 0.48320153 0.15538295 0.32833293
0.24256942 -0.55135834 0.35128242 0.3123391 0.5630956 -0.3249409 -0.18214121 -0.5615379
-0.52182674 0.11118151 -0.49822453 0.18849492 -0.47322887 -0.5648768 -0.21001679 0.5861409
0.27471876 -0.353544 0.19285136 -0.058675528 0.12735789 -0.032999396 0.51355064 -0.3649658
0.12544265 0.15623043 -0.04296589 -0.20974025 -0.082883686 0.6308683 0.15736306 -0.038657308
-0.36118838 0.4330822 -0.19742516 0.5993053 -0.08810511 0.47603655 0.16099009 0.45799887
0.12787859 -0.027071297 0.40486586 0.4673634 -0.46955043 0.63624495 0.3174901 -0.26199073
0.55251056 -0.0074279904 0.34600914 -0.19857427 -0.13792676 -0.044878423 -0.55345815 0.12081938
0.119816765 -0.10065189 -0.55384004 -0.09654656 0.41014504 0.45105565 -0.5574464 0.18567882
0.4249722 -0.16984871 0.6142698 -0.38894725 -0.2622409 0.23490435 0.6083751 -0.27408108
0.2905971 -0.40335736 -0.16868734 -0.366058 0.35125214 0.37964177 0.5265845 0.1970949
-0.14527985 -0.36412096 -0.5241211 0.2630666 -0.15570748 0.5691759 -0.2026698 -0.11415759
-0.38146713 0.50225323 -0.3341505 -0.56276035 -0.5642209 0.61723906 0.59839535 0.6277583
-0.44026327 0.39662638 -0.21042246 -0.08728948 -0.3652182 0.45568493 0.61104536 -0.015403628
0.13044195 -0.19204542 0.18703179 0.28293607 -0.1276961 -0.09365231 0.5361681 0.28892702
0.12598374 -0.42511523 0.44703528 -0.42521715 -0.1600191 -0.16201127 -0.40962088 -0.5703715

fc2.weight f4 [128, 128]
00000000: 9001 be3c b0db e6bb 35f4 02bd c01a 11bc
00000010: afa3 74bd 876d 2cbd 183d e53c 9295 83bd
00000020: 2ab8 613d 00c0 abbb 2e56 003d 9537 80bd
00000030: b635 783d 2c64 89bc e068 5b3b 4cc1 97bd
00000040: 4659 423d 33f5 37bd 1484 de3c c7bd abbd
00000050: d7ac 10bd 22fd 1a3d 670b 863d 0f34 84bd
00000060: ccfa 8bbc e12c b03d a80b b4bd f81e bcbc
00000070: 6033 343c 68c4 a43c 06c1 a6bd d8ad a0bd
00000080: 40db 5f3b 1a0c 183d 3e97 9cbd 76f6 6d3d
00000090: 2a25 64bd f0c1 81bc 9c41 52bd 2e8b 22bd
000000a0: f672 3c3d 7ac2 133d 6a95 0cbd 46cf 023d
000000b0: 8962 933d ed5e 97bd 8e4a 193d 82de 65bd
000000c0: 56f6 123d 8186 823d 0098 4abb 0075 afbd
000000d0: b1ad 81bd 2157 a73d 51aa acbd f2e1 dfbc
000000e0: fe02 9bbd 8d4c 9c3d faa7 b3bd ac17 8fbd
000000f0: 7fe9 aa3d e1be 38bd 9f6c 95bd 4581 863d
00000100: 90bc 4a3c c0c5 dfbb 70ab a7bd c299 1e3d
00000110: d29b 2d3d 2a95 343d d325 4fbd 11f7 a2bd
00000120: 14d7 e63c 70e4 8a3b 74c5 d73c 8036 11ba
00000130: 340c a9bd b265 583d fac7 03bd 6427 873c
00000140: 4013 693b b60d a2bd 4aeb 7d3d 48fc 733c
00000150: 8061 a53b d0cf c7bc 9cc2 3bbd 026d 793d
00000160: cae4 193d 3a0e 5e3d 78f9 b3bc 30cc 6ebd
00000170: 101b 31bc 28c2 8abd 1022 513c 710d b13d
00000180: d54c 803d 7b5a 84bd bd27 07bd 5934 a13d
00000190: b4ba ca3c c741 9dbd 3d0c 6abd d0f9 15bc
000001a0: b064 9ebd cb9f 913d 009f 4abc 32a5 46bd
000001b0: f4a3 843c db3c a0bd 5016 1f3c c70c 833d
000001c0: 6079 733b 60ff febb 189d 76bc a8c3 f7bc
000001d0: 2b93 983d 6f2e 91bd d0b8 94bd d990 0fbd
000001e0: 911e b33d 111d b33d ae9d 1dbd be8a 573d
000001f0: cc70 c73c 9bfc 11bd 421a 353d 72b5 01bd
00000200: 7fdb 1f3d 7643 153c 3e57 6ebd 5580 ffbc
00000210: 3147 673d 105e 273d 6e1c 70bd ba13 313c
00000220: bca1 433d 4733 83bd 72c0 22bd fa9c 69bd
00000230: 3b6c e8bc cad3 8fbd c822 043c ef3e 26bd
00000240: ba19 283d c097 56bd 5854 14bc 0648 a4bc
00000250: 9522 13bd bbbc a53d 00bf 75bd 4a52 8c3d
00000260: bf47 603d f276 b0bd 221a 833d 6466 17bd
00000270: add2 1bbb 02fa 1a3d 7728 89bd b11f a83d
00000280: 5d63 a8bd 2635 2c3c fe30 4a3d 50b2 f73b
00000290: 3aed 5b3d 73e6 86bc 78e6 f83c fa7a aabd
000002a0: f497 56bd ce09 6abd a781 943d a589 28bd
000002b0: f80c a43c 3b6b 25bd dde9 253d c38c 123d
000002c0: f5bb 4d3d c579 903d e49e 353d 3c95 a03b
000002d0: ba94 393d ea32 653d 8efe 463d 8e92 3a3d
000002e0: 8f0f 98bd 4e46 2f3d a94a bc3c 8047 3a3a
000002f0: b090 aabc b8d1 dcbc c09f b2bc ce7c 453d
00000300: ec5e 08bd df83 9a3d d60a 0bbd c47e d33c
00000310: 6ade c3bd 3fbb 83bc 90fb 1ebc 1c91 1eba
00000320: 82f0 803d 08a0 7a3c d730 a3ba 0460 a2bc
00000330: 9f48 18bd 6aa7 933b 64b6 2e3d 1f01 71bd
00000340: 69be f13c f12c a7bd 409b a43c 4a6b 213d
00000350: 4300 c0bd f106 3ebc f816 fbbc 8c3b 7bbd
00000360: e034 61bc b232 6dbd 8aae 73bd 521e 183d
00000370: 6897 59bc 6800 a33c 006c 97bd d2c2 3a3d
00000380: 006f 073a 59cf 4e3d 4486 f3bc b19c 24bd
00000390: 68f9 f03c 91ac 6abd 4431 14bc 17ea 7abd
000003a0: c9d8 b43d 4c09 663c 00f2 7bbb ae94 5e3d
000003b0: 48a7 073d fed1 90bd c80e b9b9 4d47 41bd
000003c0: 7dd1 46bd 05ed 993d 8f92 07bd 1fa2 74bd
000003d0: 7900 7fbd 92ef 383d 123e 953c e4e9 d9bc
000003e0: 6118 aebd 3ea6 273d badc 3fbc 00a8 3cbd
000003f0: 30c2 4c3c 8e56 253d 566b 7e3d 693f 9f3d
0.023194104 -0.0070452318 -0.031971175 -0.008856475 -0.059726413 -0.04209664 0.027983233 -0.06425013
0.055107273 -0.005241394 0.031332187 -0.062606014 0.060598098 -0.016771398 0.0033479258 -0.07409915
0.04744842 -0.044911575 0.02716259 -0.083858065 -0.035321083 0.037839063 0.065451436 -0.06455242
-0.017087363 0.0860231 -0.08791286 -0.022963986 0.010998577 0.020113185 -0.08142285 -0.07845658
0.0034157783 0.037120916 -0.07646035 0.05809637 -0.055699505 -0.015839547 -0.0513321 -0.039683513
0.046008073 0.03607414 -0.03432218 0.031935953 0.071965285 -0.073911525 0.037424617 -0.056120403
0.035879456 0.06373311 -0.0030913353 -0.08567238 -0.06331957 0.081709154 -0.08430923 -0.027329419
-0.0756893 0.076317884 -0.08772273 -0.06986937 0.08345317 -0.04510391 -0.072961085 0.06567625
0.012374058 -0.0068289936 -0.08186996 0.038720854 0.04238493 0.044087566 -0.05057318 -0.079572804
0.02817873 0.0042386577 0.02633927 -0.0005539432 -0.08254281 0.05283136 -0.032173134 0.016498275
0.0035564452 -0.079127714 0.061991967 0.0148916915 0.0050470233 -0.024391085 -0.04583989 0.060894974
0.037571706 0.054212786 -0.021969542 -0.058300197 -0.010809675 -0.067753136 0.012764469 0.08645142
0.062646545 -0.0646257 -0.03299688 0.07871313 0.02474723 -0.07678562 -0.057140578 -0.009153798
-0.07734048 0.07110556 -0.01236701 -0.048497386 0.01619146 -0.07824107 0.00970991 0.063989215
0.0037151203 -0.007781908 -0.0150521025 -0.030244663 0.07449945 -0.07088935 -0.07261813 -0.035050247
0.087460645 0.08745778 -0.038480453 0.05262255 0.024345778 -0.035641294 0.044214495 -0.03166718
0.039027687 0.009110322 -0.05818867 -0.031189123 0.056464378 0.04086119 -0.058620863 0.010807926
0.047761664 -0.06406265 -0.03973431 -0.05703447 -0.02837192 -0.070228174 0.008064933 -0.040587362
0.04104016 -0.052390814 -0.009053312 -0.020053875 -0.035921652 0.08092638 -0.059996605 0.06851633
0.054755922 -0.08616437 0.06401469 -0.03696288 -0.0023776696 0.037836082 -0.06697171 0.0820917
-0.08222077 0.010510718 0.04936313 0.0075590983 0.053693034 -0.016467309 0.030383334 -0.08324237
-0.052391008 -0.057138257 0.07251292 -0.041146893 0.020025715 -0.040385466 0.040506233 0.035778772
0.050228078 0.07054476 0.044340983 0.0049006026 0.045307852 0.05595676 0.048582606 0.04554992
-0.074248426 0.042791657 0.02298482 0.0007105991 -0.020820946 -0.02695547 -0.02180469 0.048214726
-0.03329365 0.07544684 -0.03394588 0.025817282 -0.095639065 -0.016080497 -0.009703532 -0.00060488447
0.06295873 0.0152969435 -0.0012450468 -0.019821174 -0.037178632 0.0045060413 0.04265441 -0.05883896
0.02950974 -0.08162869 0.02009356 0.03940896 -0.0937505 -0.011598335 -0.0306506 -0.061336085
-0.013745517 -0.057909675 -0.059492625 0.03713829 -0.013280727 0.019897655 -0.07393646 0.04559595
0.00051663816 0.05049071 -0.029727109 -0.040188495 0.029415801 -0.05729348 -0.009044949 -0.0612584
0.08830411 0.0140403025 -0.0038443804 0.05434101 0.033118516 -0.07071303 -0.00035296963 -0.04718714
-0.048539627 0.07515911 -0.033098754 -0.059724923 -0.06225631 0.045150347 0.018218074 -0.026600786
-0.08500744 0.040930025 -0.01171034 -0.046058655 0.01249747 0.040365748 0.062114082 0.077757664

fc2.bias f4 [128]
00000000: 4558 9c3d 45be 15bd 2160 5f3c aa4d 7c3d
00000010: 73bf 003e 148e 843c 59d6 53bc 75c0 983d
00000020: d2be f9bc 68d7 91bd 810d ff3a b4d7 933d
00000030: 696b da3d e0fd bd3b cda8 9b3d f953 ac3c
00000040: cefb f23d 1212 edbc e22d a2bd ffb8 22bd
00000050: d12e 923d ef90 113e 120f b93d 142a a73d
00000060: fefa b23d dc3c 16ba bfc3 953d 316b 8c3d
00000070: 146e d9bc 446f 38bd e89c 27bc 9458 41bd
00000080: e0f7 a7bc 2b98 d0bb b773 2c3d 21c1 cdbb
00000090: 3616 953d f815 073e a091 1dbd 9fe7 833d
000000a0: a8ee 073e 6b7e 8fbd a417 a93c 8d3e ff3d
000000b0: 7039 8fbb d647 623c 80a5 0a3c 5609 00bd
000000c0: 6232 d83c 8c33 0abd 997b f03d f82c 2b3c
000000d0: 609d fc3c 7fa3 fb3c 84e1 463d e765 04bd
000000e0: 4149 8c3d ea55 553d acf0 a13c e674 53bd
000000f0: a8f4 d83d fbe9 a73d fa40 d8bc 529d 3c3d
00000100: cba0 dc3e 48e4 43bc 4dc8 8d3d 09f9 983d
00000110: c813 c43c 005f dfbb b4ca a8bd cb92 80bd
00000120: 61a0 8d3d ee83 013e 9586 863d 95f8 ff3d
00000130: f08a 86bb ecea da3c e3a5 86bc 2a41 0a3e
00000140: 8803 f43c 9884 a2bd 4a20 3c3c b892 87bd
00000150: fb13 863a 60e1 ea3b 3d42 76bc 2e85 343d
00000160: 0575 9abd c108 973a 3fc8 55bc a473 4fbd
00000170: 5a46 723d 6f89 883d 88d7 c7bd 0087 3d3a
00000180: 9ee4 003d 15f0 e93d 7769 e23d 1a71 9abd
00000190: b51d 473d fdec 8d3d c2f3 dabb 407f c2bb
000001a0: a72c f23d fb10 c9bc 642c e33c c81f e73d
000001b0: 27a4 04bd 6ab6 dcbd 4dec 51bc 80a7 fbbb
000001c0: e4da 93bd c0c9 6cbc 6fa1 28bd 445f 14bd
000001d0: e3d9 ef3d e8f9 b13c 22d5 553d d4f4 a23d
000001e0: fda9 5cbc bbd0 aebd 30e8 333d ac03 9dbd
000001f0: 4866 003e f02b 81bd 1d70 19bd d399 f63d
0.076340236 -0.03655841 0.013633759 0.061597504 0.12573032 0.01618103 -0.012929522 0.07458583
-0.030486498 -0.071211636 0.001945898 0.072188765 0.10665018 0.0057980865 0.076005556 0.021036135
0.11864434 -0.02893928 -0.07918908 -0.039727207 0.07137836 0.14215444 0.090360776 0.08162323
0.08739279 -0.00057311147 0.07312726 0.06856383 -0.026541747 -0.045027986 -0.01023028 -0.047203615
-0.020503938 -0.006365796 0.04210254 -0.0062791263 0.07279627 0.13191974 -0.038468957 0.064406626
0.13274634 -0.07006534 0.020641156 0.124631025 -0.0043708608 0.013811072 0.00846231 -0.031258903
0.026391212 -0.033740565 0.117423244 0.010447733 0.030836761 0.03071761 0.048554912 -0.032323744
0.068499096 0.052083887 0.019768082 -0.051625155 0.105935395 0.08198925 -0.02639817 0.04604847
0.43091425 -0.011956282 0.0692297 0.07469375 0.023935214 -0.006816745 -0.082417876 -0.062779985
0.069153555 0.12647983 0.06568638 0.12498585 -0.004105918 0.026723348 -0.016436523 0.1350142
0.02978684 -0.079354465 0.011482308 -0.06619781 0.0010229343 0.00716798 -0.015030441 0.044072323
-0.07541851 0.0011522995 -0.013048231 -0.050647393 0.059149124 0.066668384 -0.09757906 0.00072298944
0.031468026 0.11422745 0.11055272 -0.07541104 0.048612315 0.069299676 -0.00668189 -0.0059355795
0.11824923 -0.02454423 0.027731128 0.11285359 -0.03238311 -0.1077698 -0.012812686 -0.0076798797
-0.072194844 -0.014452398 -0.04116958 -0.036223665 0.117114805 0.02172561 0.052205212 0.079568535
-0.013468263 -0.08535906 0.043922603 -0.07666716 0.12539017 -0.063072085 -0.037460435 0.120410584

fc3.weight f4 [4, 128]
00000000: c0e5 c5bb 8acd 59bc 9d07 553c b2e3 27bd
00000010: 0af1 c2bd f517 9e3d 9298 5ebd 8009 c0ba
00000020: 1f41 8c3d 883f c4bc 0726 5a3d 677c 9dbd
00000030: da1b adbd e8d4 903c 48f8 e43c d2b5 95bd
00000040: 7697 72bd 288d 80bd fa17 273d b8ad fd3c
00000050: 26e4 acbd 9ef6 873c c2cc 9dbd 9636 2d3c
00000060: 7934 7fbd 9a31 203d abe6 0fbe eb59 a7bd
00000070: 636f a23d 8266 303d d6bc a7bd 550f 9d3d
00000080: 4605 9dbd 8bd8 a1bc 5333 fbbd fea4 cbbd
00000090: 1668 043d 10f2 033c f129 76bd 52ab b9bd
000000a0: 8dfa 23bd 91ed 923d fa26 42bd 9e89 e6bd
000000b0: 8fda 64bd 2b9c cabd ad83 61bd 7adf 85bd
000000c0: 3470 96bc 207a 1dbd 4f9a edbd 80c7 3f3b
000000d0: 9074 b5bb 401a 32bd 9236 c7bd 4051 92ba
000000e0: a67c 313d 1ee3 0a3d 5015 cbbb 42f3 4d3c
000000f0: 6083 a8bd dafb 59bd 5a6a 46bd 887c ddbc
00000100: dd0d 71bf 0005 4dbb 1aea 25bd 967f 663d
00000110: acdf cfbd 0d53 983d 90b8 6dbc 0866 423c
00000120: ea48 76bd 007d e6ba 3cfd 363d 5012 f1bb
00000130: a44d c2bd 4079 de3a 0529 12bd 8699 c9bd
00000140: 3ce2 5ebd 83ba b03d 9f0e 9abb f0ae a93c
00000150: b711 babd 6c5f 9abd e832 d83c 1274 3f3d
00000160: 01a0 0bbd f9b9 d5bc 6e2a a5bc babe 7fbd
00000170: f07b 47bd 00f4 14bc bdf9 f83c 8c79 fe3c
00000180: 60cc b2bd f0c2 fabd c519 02be 5a78 563d
00000190: f389 963d 537e 5cbd e65a 543d b05a 58bc
000001a0: 51d1 e4bd 3a88 babc 8912 243d af1b f8bd
000001b0: 720b cbbd 792f 4d3c 5b32 b5bd 13d5 8b3d
000001c0: 56a8 553d b8b3 4fbc e557 54bd 9dc0 c43c
000001d0: edad 213b c5f6 ab3c a19c 023c 6963 70bd
000001e0: cf3f 10be da39 cb3c d6b9 2c3b 58c7 c8bc
000001f0: 011b dabd b49b 843c d2f6 f1bc 0abd fb3a
00000200: ed02 adbd 4a62 8fbd 6e29 c73b dd98 a5bd
00000210: c979 8d3d c255 f8bc 49f7 103e daa1 e9bc
00000220: 4bf8 90bd a04c 5bbb 8c12 5abd 22bc db3d
00000230: 9401 f53d b07a a13b f8ba f33c 1b75 3dbd
00000240: 1257 d93d 8085 f83b b916 1abd fed7 253d
00000250: b24d b83d c967 483d 3b50 943d 5f1f 0b3e
00000260: f227 f93d 466e 23bd 2c34 d13d 6811 153d
00000270: 32e2 2b3d d892 51bd b9f7 45bd dd81 9ebd
00000280: ae92 243d db52 60bc baa9 a33d 9a76 b03d
00000290: cf9d 59bd 52ac 053e 4766 863d 2f42 2d3d
000002a0: df4b ed3d b0fe 933d a229 7ebd 24de 5e3d
000002b0: e853 dd3c f2b1 373e c83a 43bd bc1a f4bc
000002c0: 7e70 ca3d 318f b03d 5c81 e03d 3231 99bd
000002d0: 08c6 333c 5c05 6fbb 6b8a 0c3e b65d 6d3d
000002e0: e041 26bb e358 96bd ba6d 49bd c421 ab3c
000002f0: cb64 e73d 68eb 66bc cceb ed3c 6fb0 ab3d
00000300: 3194 f83e b887 05bd 232a 943d 243a a8bd
00000310: dede 503d 81f3 813d e6dd 753d 9ea3 243d
00000320: 58df b6bc 7ce0 013e 1a61 88bd 94c5 2b3d
00000330: a0ad e73d ca4e 1c3d 03c8 a83d 7cbc 0b3e
00000340: bc60 8dbc b869 25bd 8abd dc3d ddf5 943d
00000350: bf77 eb3d 92ae 173d 936f 70bd d5ff a43d
00000360: 1253 3d3d f9e2 19bd 1350 413d 307b adbc
00000370: 7139 873d 7cb6 73bd af15 63bc 981b bebc
00000380: 9a52 3fbd 8248 d73c dcdf e03c 8ab9 3c3d
00000390: c0a6 023d 2828 02bc f2db 59bd 00cb d63b
000003a0: 9784 573d b99d 00bd 0377 30bb ab3b b03d
000003b0: ce98 9cbc 5764 4cbd 6ec5 84bc e28c 253d
000003c0: e036 f73c 5a34 8bbd 5867 3abd 49a9 f6bc
000003d0: 4274 233d a7e2 4ebd d3f3 ff3d f6e4 96bd
000003e0: 9e31 ae3d 751e 2bbd 479f d5bc 0fcc 52bd
000003f0: 1f40 383d 7a04 423d c6a3 753d 4119 0c3e
-0.006039351 -0.013293633 0.013002303 -0.04098863 -0.09518631 0.07719413 -0.05434472 -0.0014651269
0.06848358 -0.023956075 0.053258922 -0.076897435 -0.08452578 0.017679647 0.027950421 -0.0731007
-0.059226476 -0.062769234 0.04079435 0.030966625 -0.08441953 0.016597088 -0.0770507 0.010572096
-0.0623059 0.039109804 -0.14052837 -0.08171447 0.079314016 0.04306651 -0.081903145 0.0766894
-0.076670215 -0.019756576 -0.12265649 -0.09943579 0.032325827 0.008053318 -0.060098592 -0.0906588
-0.040033866 0.071742184 -0.047400452 -0.11256717 -0.055872496 -0.09893068 -0.055057216 -0.065367654
-0.01836405 -0.038446546 -0.11601698 0.0029263198 -0.005537577 -0.043482065 -0.09727205 -0.001116313
0.043331765 0.033908002 -0.006197609 0.012570204 -0.08228183 -0.0532187 -0.04844127 -0.02703692
-0.9416178 -0.0031283498 -0.04050646 0.05627402 -0.10150084 0.07437716 -0.014509335 0.011865146
-0.06012813 -0.001758486 0.044675097 -0.0073569193 -0.09487465 0.0016973391 -0.03568365 -0.098437354
-0.054414973 0.08629324 -0.00470145 0.0207133 -0.0908541 -0.075377315 0.026391461 0.046741553
-0.03408814 -0.026089655 -0.020161834 -0.06243775 -0.04870218 -0.009091377 0.030392522 0.031063817
-0.08730388 -0.122442126 -0.12705143 0.05236087 0.073505305 -0.05383141 0.0518445 -0.013205215
-0.111727364 -0.022770036 0.04005674 -0.12114655 -0.099142924 0.012523525 -0.08847495 0.0682775
0.05216249 -0.012677126 -0.051841635 0.024017626 0.0024670318 0.020991692 0.007971914 -0.058688555
-0.14086841 0.02480786 0.0026355884 -0.024509117 -0.10649682 0.016187526 -0.029536638 0.0019206118
-0.08447824 -0.07001169 0.006077937 -0.08085797 0.06907994 -0.03031433 0.14156832 -0.02851956
-0.07078608 -0.003346242 -0.053240344 0.10729243 0.11963192 0.0049279556 0.02975224 -0.04625426
0.106123105 0.007584274 -0.037619326 0.04048919 0.08999194 0.048927102 0.07241865 0.13586186
0.12165822 -0.039900087 0.10215029 0.036393553 0.041963764 -0.05116543 -0.04833195 -0.07739613
0.040178947 -0.013691629 0.07991357 0.086163715 -0.053129014 0.13054016 0.065624766 0.042299446
0.11586737 0.07226312 -0.062051423 0.05441107 0.027017549 0.17938974 -0.04766348 -0.029797904
0.098847374 0.086210616 0.10962173 -0.074800864 0.010972507 -0.00364717 0.13724677 0.057950698
-0.0025368854 -0.073411725 -0.04917691 0.020890124 0.112985216 -0.014094211 0.0290431 0.083832614
0.4855056 -0.032600135 0.072345994 -0.082142144 0.050993793 0.06345273 0.060026072 0.0401951
-0.022323295 0.1268329 -0.06659146 0.041936472 0.11312413 0.038161077 0.08241274 0.1364612
-0.01725804 -0.040384024 0.10778339 0.07273457 0.11497449 0.037031718 -0.058700155 0.080566086
0.0462218 -0.037569974 0.047195505 -0.021176904 0.06602753 -0.059500203 -0.01386015 -0.023206517
-0.046709634 0.026279692 0.027450494 0.04607538 0.031897306 -0.007944144 -0.05318827 0.006554961
0.052616682 -0.031400416 -0.0026926405 0.08605131 -0.019115832 -0.04990038 -0.016207423 0.04041756
0.030177534 -0.06797095 -0.045508713 -0.030110018 0.039905794 -0.05050912 0.12497678 -0.073678896
0.085055575 -0.041777093 -0.026076926 -0.051464137 0.044983026 0.04736755 0.05997064 0.13681509

fc3.bias f4 [4]
00000000: f7a0 6bbd 8414 d73d a0a4 cebd 9e80 f9bd
-0.057526555 0.1050196 -0.100899935 -0.12182735
